saved_model.pth (torch, 72133 bytes, 6 tensors)

fc1.weight f4 [128, 3]
000000 18 31 c3 be cd 9c 18 3e 16 26 f4 be a5 f8 4f bf
       -0.38123393 0.14903565 -0.47685307 -0.81238776
000010 b7 49 cc 3d 47 9e 9d bb 46 0d 6e be c6 d7 2b bf
       0.099749975 -0.004810128 -0.23247251 -0.6712612
000020 87 e0 38 bd e8 d1 16 be c0 cc 04 40 76 2b 11 bf
       -0.045136 -0.1472851 2.074997 -0.5670694
000030 d3 08 a4 be 48 b6 db 3d 76 d0 8e be 8b de f4 be
       -0.32037982 0.10728127 -0.27893418 -0.47826037
000040 d8 db 8d 3e 0f 92 11 bf a7 0b a3 bd 8b 27 04 c0
       0.2770679 -0.5686349 -0.07961207 -2.0649135
000050 6b 0b 86 be 90 46 59 be 66 d0 3a 3f d5 28 d6 be
       -0.26180586 -0.21218324 0.7297424 -0.41828027
000060 9c 16 06 be e6 c1 2e 3f 9c 5e 0c be 07 ec 84 3e
       -0.13094562 0.68264616 -0.13707966 0.25961325
000070 83 ad f0 3f 7e 77 23 3e 96 03 3b bf 16 95 fb bf
       1.8802952 0.15963551 -0.73052347 -1.9654872
000080 b4 d3 71 3d 92 31 64 bf db b7 10 c0 0f 61 94 3d
       0.059039786 -0.8913814 -2.2612216 0.07245075
000090 11 49 93 be ff f2 7a c0 74 aa bc 3d ae 04 a0 be
       -0.28766683 -3.9210813 0.09212199 -0.3125357
0000a0 dd 7e e7 3e 7f fc 0a 3b 38 06 f5 3c cd b6 57 40
       0.45213977 0.0021207628 0.029910192 3.3705323
0000b0 33 1e 76 3e 9e 93 0c bf 81 3a f2 be a9 80 8d 3d
       0.24034958 -0.54912746 -0.4731026 0.069093056
0000c0 81 6b 0f bf b7 eb 1a 40 90 a7 23 3d ec 9a db 3d
       -0.5602341 2.420637 0.039954722 0.107229084
0000d0 25 c1 b9 3c d4 86 61 3e ba b1 f6 be ef 6f 06 bf
       0.022675106 0.22024089 -0.4818247 -0.5251455
0000e0 f2 d5 30 be 83 b5 2a 3d d8 4f b4 3f 1e 4e 0f 3e
       -0.17269114 0.04167701 1.4086866 0.13994643
0000f0 93 10 87 bd 9f 5d 4b 3f f8 a7 06 bf d4 68 be bd
       -0.06594958 0.7943973 -0.5260005 -0.09297338
000100 1d 99 98 3e b1 1f d3 39 02 7b 0c be 62 6b 3d 3f
       0.29804316 0.00040268668 -0.13718799 0.7399198
000110 1f 42 12 bd d0 27 ad bf 39 03 f2 bf 19 dc 04 3e
       -0.03570759 -1.3527775 -1.8907233 0.12974586
000120 a9 1d 91 3e e7 d7 93 3f 8b 04 fe 3d bd b7 4d bd
       0.2834294 1.1550263 0.1240321 -0.050224055
000130 5e 73 ab bf 80 4e 8d 3e cd 03 f4 be 5c e0 a3 bd
       -1.3394582 0.27598953 -0.4765915 -0.080017775
000140 40 5a b6 be 83 94 68 3e 9c 40 ee 3f 71 5e 94 3d
       -0.3561573 0.22712903 1.8613467 0.07244576
000150 ad 41 28 bd 92 3a ab bd 28 45 14 bf 18 aa dd 3d
       -0.04107826 -0.08360781 -0.57918024 0.108234584
000160 09 08 e6 3f e6 92 fa bd 25 7f 69 be 41 c6 01 c0
       1.7971202 -0.1223505 -0.22802408 -2.0277255
000170 3b 95 ed bd 8f 1a 29 3e 06 f8 2d 3f ae 70 40 3d
       -0.11600729 0.16514038 0.6795658 0.04698246
000180 ae e3 b3 be 54 50 e7 bc 9b 15 00 bf f2 4f ee bd
       -0.35134643 -0.028236546 -0.5003297 -0.11636342
000190 77 ad 96 3f b6 a5 5c bd db a9 bb bf f6 e2 74 bf
       1.1771687 -0.05386897 -1.4661211 -0.95658815
0001a0 d6 af 44 3e 0f 5e 08 3e 02 a2 06 40 14 26 6b bf
       0.19207701 0.1331713 2.1036382 -0.9185498
0001b0 2d 99 19 bf e0 c3 dc bf 63 d1 83 3e 18 1b 18 bf
       -0.5999935 -1.7247276 0.25745687 -0.5941634
0001c0 c2 37 04 40 84 b6 de 3c 9c bb 1d bf bb 25 0d c0
       2.0659032 0.02718664 -0.61614394 -2.205428
0001d0 70 ac 86 3e bd 11 c6 bd 72 48 b6 3e 77 b2 b2 bd
       0.26303434 -0.09671352 0.35602146 -0.08725446
0001e0 07 52 80 bd e8 73 43 40 6f fe b0 3d 52 e8 dc bb
       -0.062656455 3.0539494 0.08642279 -0.006741562
0001f0 ae 89 65 be de 14 ea b8 7e 40 20 bf e8 59 c6 3e
       -0.22415802 -0.00011161876 -0.6259841 0.38740468
000200 5a 19 bc 3e 73 90 68 3d d9 01 d9 3f 78 30 57 be
       0.36738092 0.056778383 1.6953689 -0.21014583
000210 38 ce e0 ba 30 cd d6 3c bd 1b fb ba e3 16 c1 bd
       -0.0017151302 0.026220888 -0.0019158047 -0.094281934
000220 35 cb da 3e ea f9 18 bb 50 6c 04 bf 98 02 87 be
       0.4273316 -0.002334232 -0.5172777 -0.26369166
000230 ff 9c d9 be d4 45 fd be b4 fb 0c c0 a2 76 4c 3e
       -0.4250259 -0.49467337 -2.2028627 0.1996713
000240 88 a8 bb be 80 3e 1b bc 1e 7f e8 be c3 72 88 bd
       -0.36652017 -0.00947535 -0.45409483 -0.06662514
000250 d9 6d 40 3f 72 2b c1 bc 22 d0 43 bd 17 6d 20 bf
       0.75167614 -0.023580287 -0.047805913 -0.6266646
000260 60 24 28 bd 07 9e 09 bf 7d 66 5d 3e ff 0f 46 bf
       -0.041050315 -0.53756756 0.21621127 -0.7736816
000270 ef 61 22 bd 9f 6b 97 bd ad 32 62 3b b5 7b 2b be
       -0.039644178 -0.07393574 0.0034515068 -0.16746409
000280 9b 1e ec 3e a1 a1 69 bf a3 ce 09 bd 7c 96 05 c0
       0.461171 -0.9126225 -0.03364433 -2.0873098
000290 a8 f0 b1 bd a3 7d 16 bd 21 77 39 bd 05 0d 13 bd
       -0.0868848 -0.03674091 -0.045279626 -0.03590109
0002a0 1c 08 6e be e6 9a 2c bf b5 f9 91 be 55 f6 ef bd
       -0.23245281 -0.67423856 -0.28510824 -0.11716906
0002b0 37 e9 a7 3f 60 d6 80 3e cd be e4 bf 1c 64 83 bf
       1.3118047 0.25163555 -1.7870728 -1.0264926
0002c0 01 c9 41 3e c5 8a 1d bf 50 1d 04 c0 29 d5 a0 3e
       0.18924333 -0.6153987 -2.064289 0.31412628
0002d0 13 f5 c3 be d6 51 85 bf 7e 35 dc be 43 9b b5 bb
       -0.38272914 -1.0415599 -0.4300956 -0.0055421903
0002e0 64 1b 07 c0 a3 3e c8 3d 19 84 33 bf b7 f9 16 c0
       -2.1110468 0.09777572 -0.7012344 -2.3589914
0002f0 8a 93 9c 3e a1 bc f7 bd d0 f9 db 3f 81 ad 8b 3e
       0.30581313 -0.12096525 1.7185612 0.2728081
000300 04 8d fd be e4 ec f6 3e 1e b5 a8 be 9c 4c f4 be
       -0.4952165 0.48227608 -0.3295068 -0.47714698
000310 f8 5e 80 bd b0 9c d9 be 51 83 d7 3d 0b 5f e1 3f
       -0.06268114 -0.42502356 0.105230935 1.760713
000320 4f cf 15 3d 51 4b 90 be 35 89 bb 3f bf 15 82 be
       0.036574658 -0.28182462 1.4651247 -0.25407216
000330 3e 86 2c bc 49 c3 9f 3f 29 c7 f4 3d 7c 75 4e be
       -0.010530053 1.2481471 0.11952049 -0.20162004
000340 0a ff 49 c0 04 67 88 3d b0 86 34 bf f1 40 24 3f
       -3.1561913 0.06660274 -0.70518017 0.6416159
000350 be fb c5 bb 74 7b de bc ab de 32 bd 48 2f dd 3a
       -0.006041973 -0.027158476 -0.043669384 0.0016875053
000360 f4 fe f4 3b 65 eb 82 40 d7 70 e6 3d c2 a8 0d bf
       0.007476682 4.0912347 0.11251991 -0.5533563
000370 fc b4 2e c0 79 9d 65 3e 80 e2 09 bc 17 f5 c6 bd
       -2.7297964 0.22423352 -0.008415818 -0.09714716
000380 54 20 09 bc 8b a6 d3 3d 7c d4 e6 3e bb 2c 10 bf
       -0.008369524 0.103345 0.45083988 -0.56318253
000390 50 3e 25 be 88 2f 53 3e 64 d9 d1 bd 1b 96 0a be
       -0.16137052 0.206236 -0.10246542 -0.13533823
0003a0 35 61 e2 3f e2 0c 9b be 1f a6 01 bf 80 52 3c c0
       1.7685915 -0.30283266 -0.50644106 -2.9425354
0003b0 9f 59 59 3e 2f 3a 19 bf e2 e0 16 40 7b 49 5b 3d
       0.21225594 -0.59854406 2.3574758 0.053536873
0003c0 ac 49 b8 bf be 0d 9b 3e 09 15 43 3e c9 a2 03 be
       -1.4397483 0.30283922 0.19050993 -0.12855066
0003d0 81 cd 6b bf b0 12 17 be 2a fb 6b bf d9 cb 51 3e
       -0.9211045 -0.14753222 -0.9218012 0.20487918
0003e0 51 92 e7 3e e2 ca dd bd fd 2f 55 3f b1 7f 0a bd
       0.45228818 -0.108297125 0.8327635 -0.033813182
0003f0 da d7 e3 bd f1 1d 2d c0 d9 a0 3f 3e 44 52 92 bd
       -0.11125155 -2.7049525 0.18713702 -0.07144597

fc1.bias f4 [128]
000000 dd a1 e8 be 96 e1 7a 3f e2 a1 73 3c 80 79 85 bf
       -0.45435992 0.98000467 0.014870139 -1.0427704
000010 de 0d 8f 3e 3c bd b1 be 27 6c d5 c0 8e a6 1f 3f
       0.27940267 -0.34714687 -6.669452 0.6236352
000020 35 9a de bf 22 8c 8a 40 d2 14 17 c0 be 7b a4 bb
       -1.739081 4.329606 -2.3606458 -0.005019634
000030 8d 39 77 c0 6d 7b 53 40 b0 1e 80 40 de 24 7a c0
       -3.8628876 3.3044083 4.003746 -3.9085002
000040 d3 d8 3f 40 f5 06 14 c1 0f 46 8a be 98 20 d6 40
       2.997609 -9.2516985 -0.27006575 6.6914787
000050 8f 4f cd c0 de 0b b4 3f 56 32 3f 40 51 07 08 bf
       -6.4159617 1.4066122 2.9874473 -0.53136164
000060 97 51 14 40 f1 61 61 3f 74 82 f7 3e bd ef 6c 40
       2.3174798 0.8804007 0.48341715 3.7021325
000070 f6 27 97 be b6 99 b7 c0 ee a9 6f 40 f6 38 c2 40
       -0.29522675 -5.7375135 3.7447467 6.0694532
000080 de 9c 0b 3f d7 45 87 3e a5 3b fe bf d3 66 ae c0
       0.54536235 0.2642047 -1.9861952 -5.450052
000090 97 2c 47 40 b9 96 ee 3f c4 16 05 3f 39 de f7 bc
       3.1120965 1.8639747 0.5198786 -0.030257331
0000a0 3c 74 78 3f 86 90 2c c0 1a 89 56 40 1a f4 b8 c0
       0.9705236 -2.696321 3.352118 -5.7797976
0000b0 33 3c f3 be e9 36 6a bf 18 6b c8 bd 89 e4 92 3f
       -0.47506866 -0.91490036 -0.097860515 1.1475993
0000c0 24 81 13 3f ea f6 b2 bf 89 99 20 bf ed 0b 30 c0
       0.5761893 -1.3981602 -0.62734276 -2.750728
0000d0 dc db 3d c0 a7 05 99 c0 93 e7 90 3f a3 7f e8 3e
       -2.9665442 -4.78194 1.1320671 0.4540988
0000e0 54 88 91 bf 8d 60 8c 40 eb 5b 22 c0 af 0e 0b 40
       -1.1369729 4.386786 -2.5368602 2.1727712
0000f0 45 18 55 bf c0 54 f0 c0 f1 65 ab be fb af 63 c0
       -0.8324016 -7.5103455 -0.33476213 -3.557616
000100 d6 2e 8c 3e 69 f2 00 bf ed d5 a1 c0 d1 60 5c c0
       0.27379483 -0.5036989 -5.057364 -3.4434092
000110 54 2a d9 40 09 c4 b5 c0 b5 7a 72 40 3d fb 98 bf
       6.786417 -5.68018 3.7887394 -1.1951672
000120 ed a7 09 3f af fe 68 3f 12 be 41 bf f5 64 aa 40
       0.5377186 0.91013616 -0.7568065 5.324824
000130 ee 14 cf 3e 3a 6c d0 3f f7 85 c5 3d 9b a5 27 40
       0.40445656 1.6283028 0.096446924 2.6194828
000140 92 cb 87 3f 09 95 68 3f af 0e 5c 40 d5 81 56 3f
       1.0609 0.9085241 3.4383962 0.8379186
000150 4a 26 c0 3f e8 bd 1e bf 6f 7f bc 3f 00 40 15 b8
       1.5011685 -0.62008524 1.472639 -3.5583973e-05
000160 1b 10 0c 40 f6 86 3b 40 86 73 ef 3f 5c 30 ca bf
       2.188483 2.9301124 1.870713 -1.5796008
000170 cc 60 de bd 44 86 ac be 68 9b 71 40 ce 4b 1f 3f
       -0.10858306 -0.33696187 3.7751102 0.62225044
000180 40 e1 74 be 4f 61 c1 40 73 ea 19 40 73 05 07 40
       -0.23914051 6.0431285 2.4049346 2.1097076
000190 54 2f 06 3e 36 de ed bd f3 b0 ac 3f c6 1d a5 3f
       0.13103992 -0.11614649 1.3491501 1.2899711
0001a0 5e 93 08 3f c2 3f eb be 9a 24 45 be 38 07 e5 bf
       0.53349864 -0.4594708 -0.19252244 -1.7892828
0001b0 df 7c 13 bf 2e 58 38 40 49 6b 61 40 b9 4e db 3f
       -0.57612413 2.880382 3.5221732 1.7133399
0001c0 01 8c b1 c0 56 eb 37 c0 1f e9 0a 3e ee 0c 0b 41
       -5.5483403 -2.8737388 0.13565491 8.690657
0001d0 28 b7 0b bf c0 ea 0c 40 72 52 1d 40 49 cc e3 3f
       -0.5457635 2.201828 2.458157 1.7796718
0001e0 f3 1a 65 3f a6 a7 14 bf 96 55 d8 3e 3e f7 f6 3e
       0.89494246 -0.5806831 0.42252797 0.48235506
0001f0 96 0c 6d 40 17 86 96 3e 14 b0 bc 3f 2d 0b f6 3f
       3.7038932 0.29399177 1.4741235 1.922216

fc2.weight f4 [128, 128]
000000 8d ba c8 bd f2 4f 6d 3d f4 e7 82 3d 14 48 ab bd
       -0.09801207 0.05793757 0.06391898 -0.08363357
000010 a0 a7 59 3c f9 ed aa 3d b6 eb f0 3b 3b b3 2f 3d
       0.013284594 0.08346171 0.0073523177 0.042895537
000020 13 88 05 3d f8 b5 67 bc 47 eb e2 3c 21 91 ea bd
       0.032600474 -0.014142506 0.02770008 -0.114534624
000030 bf 49 89 3c 2d 70 99 bb 11 89 dd bd 5b 23 b5 bd
       0.016758798 -0.004682562 -0.10817159 -0.08844634
000040 8c c1 60 bd c3 4b 44 3c 7e 40 76 3d 2b 3e 56 bc
       -0.05487208 0.011980954 0.0601201 -0.013076345
000050 dc d0 aa 3c 85 c2 4b bc 55 f2 f0 3d 61 a1 96 bd
       0.020851545 -0.012436514 0.11764971 -0.07354999
000060 1d ac 79 bd 91 7c 8e bd 20 00 cb bc 96 7e e3 bd
       -0.060955156 -0.06957353 -0.024780333 -0.11108129
000070 45 4e c2 bc 29 c9 59 3d 5e 0a 8b bd 6d 04 8b 3c
       -0.023718962 0.053170357 -0.06789087 0.016969884
000080 91 16 ac bd c8 50 0f 3d 7d 29 f8 bd b6 86 b6 3c
       -0.08402742 0.03498915 -0.12117288 0.022281032
000090 01 ca 33 3d 20 06 c9 bd c9 80 4b 3c ac 80 c5 bc
       0.043893818 -0.098156214 0.0124208415 -0.024109207
0000a0 41 67 a7 bd 4f e7 ef bd 41 56 67 bd 63 c7 50 bc
       -0.08173991 -0.117140405 -0.056478743 -0.01274285
0000b0 30 c2 f6 bd b2 0a 84 bd cc a5 96 3c a3 c3 28 bd
       -0.12048757 -0.064473525 0.018389605 -0.0412022
0000c0 fd 4f 89 3d b9 01 8a 3d c5 36 ed bc f6 79 e6 3c
       0.0670471 0.0673861 -0.02895678 0.028134327
0000d0 54 d7 c0 bd 2e 17 2d bc 88 2a 40 bd 55 4f 5d 3d
       -0.094160706 -0.0105646085 -0.04691556 0.054030735
0000e0 6d 43 9d bd 45 7c 20 3d 76 1c a3 bd 5f 7d 0b 3b
       -0.07678876 0.039181013 -0.07964413 0.0021284444
0000f0 88 ae 42 3d e2 b5 b8 bd 37 ca e8 bd 2b 4f 90 bb
       0.047529727 -0.090190664 -0.113666944 -0.004403969
000100 78 b9 63 3c 08 ee db bc 96 57 f1 3c 2d 64 46 3d
       0.0138992 -0.0268469 0.02946071 0.04843538
000110 41 8a 81 3d a8 61 85 3b 73 3f 9e bd 5b 14 50 3c
       0.06325198 0.0040704794 -0.07726946 0.012700166
000120 8a 2e ae bd 3b 51 c1 3c 85 2a 4c bd 0f 5d a7 3d
       -0.0850497 0.023598304 -0.049845237 0.081720464
000130 1a b9 59 3d 0c 68 92 3d f6 33 0f bc 5f 7a 3d bd
       0.053155042 0.071487516 -0.008740416 -0.04625928
000140 76 33 85 3d 45 a1 e8 bd 5d e2 99 bd 06 0a 83 bd
       0.06503956 -0.11358885 -0.075138785 -0.06398396
000150 fc 2d 15 bd 4d 70 5e bd 2d 6a b5 bc 71 6c a6 3d
       -0.036420807 -0.054306317 -0.022145355 0.08126152
000160 a5 40 06 3c 3d ea 5a 3d 3a 90 0a 3c 96 98 0e bd
       0.008194123 0.053446043 0.008457238 -0.034813486
000170 00 35 08 bb 50 4b ff bb 38 0f 59 bd c5 bb 2c 3d
       -0.0020783544 -0.0077909604 -0.05299303 0.04217126
000180 b0 3a 84 bd 7e dc 15 3d 7e 80 d2 bd f0 48 58 bd
       -0.06456506 0.03658723 -0.10278414 -0.052803934
000190 a7 c7 a6 3d fb 24 75 3d 99 8a 95 bd 5f db e0 3c
       0.081435494 0.05984972 -0.07301826 0.027448354
0001a0 02 69 4c bd 12 e3 33 3d ae 48 53 3d 3f bb 0f bd
       -0.04990483 0.043917723 0.051582985 -0.03509068
0001b0 a8 1f 35 3c c3 4b bb bd 07 e9 87 3d 5b 52 91 bb
       0.011054911 -0.0914531 0.06636243 -0.0044348664
0001c0 78 8e 03 bc 68 cf 47 bc d7 19 da 3c 83 27 15 bd
       -0.008029573 -0.012195446 0.02662365 -0.036414634
0001d0 5d d4 c5 bc 49 7a 23 3d ab 55 a6 bd b1 1c d8 bc
       -0.024149114 0.039911542 -0.081218086 -0.026380869
0001e0 df 1c 18 bd b9 fe 81 bd f1 ea 85 bd 7c 97 94 bd
       -0.03713691 -0.063474126 -0.06538952 -0.07255456
0001f0 33 e2 1a bd a8 20 50 3c 3b d9 f6 bd 40 76 8a bd
       -0.037813377 0.012703098 -0.12053152 -0.06760836
000200 de d2 d5 bd 1b 75 19 bd c8 4b 9d bc 93 21 ca 3c
       -0.1044061 -0.037465196 -0.019201174 0.024674213
000210 90 93 2f 3c ce 48 54 3d 20 86 b6 bb 5d 7c 69 bd
       0.010716334 0.051827244 -0.005570188 -0.057003368
000220 69 d5 c0 3c 2b cc a8 bd 6a bd 33 3d 6e a3 3b 3d
       0.023539262 -0.08242067 0.04388181 0.045810156
000230 b2 f1 26 3d 80 c8 81 bb 6f ea 13 bd e0 2b f4 3b
       0.040757842 -0.003960669 -0.036112245 0.0074515194
000240 80 81 bb ba 62 e2 a6 bd 6a f3 5b 3d 97 4e a3 bc
       -0.0014305562 -0.08148648 0.053698935 -0.019934935
000250 a9 54 a0 bd 91 f8 b6 bd 13 cd c6 3c 13 e2 aa 3d
       -0.07828648 -0.08934129 0.024267709 0.083439015
000260 aa 7f 60 3d 1f 51 28 bd 72 22 3b 3d 5e 87 5d 3d
       0.05480925 -0.041092988 0.045687146 0.054084174
000270 8d 1c d1 bd 77 22 af bd c5 1b 40 3d 4c 60 6f 3d
       -0.10210524 -0.085514955 0.046901483 0.058441445
000280 93 73 36 bd b0 78 73 3a 53 40 a2 bd ae 2b f4 bc
       -0.044543814 0.0009287698 -0.07922425 -0.029805984
000290 00 ab e7 bb d5 35 82 3d 8c 14 bd 3c f5 42 92 3d
       -0.0070699453 0.06357924 0.023081087 0.07141677
0002a0 f6 bb 81 bd 7d cb 70 3d 40 b1 ea bb 53 68 64 3d
       -0.06334679 0.05878781 -0.007162243 0.055763554
0002b0 35 13 8c bd e2 db 89 bd 3c 00 8b bc a0 76 5d 3b
       -0.06839601 -0.067313924 -0.016967885 0.003379263
0002c0 e3 fb ab 3d 77 9d c8 bc 12 da ea bd 84 b6 03 bd
       0.08397653 -0.024489148 -0.11467375 -0.032156482
0002d0 12 cf 24 3d d8 1f eb 3c a3 66 a6 3c 73 85 b4 3c
       0.04023654 0.028701708 0.020312613 0.02203629
0002e0 89 92 97 bd 42 91 d4 bc 80 36 50 3a 2b 56 a0 bd
       -0.07400996 -0.02594817 0.00079426914 -0.07828935
0002f0 53 19 92 bd 00 ef 35 3d 90 64 a5 3c 24 bd ec bd
       -0.071337365 0.04441738 0.020189553 -0.11559513
000300 d2 b2 65 3d f3 8d a9 3d 90 41 a9 bc 2a c2 e9 bc
       0.05607874 0.08279028 -0.020661145 -0.028534967
000310 29 4d 11 3c d5 f7 9e bd 08 0c 85 3c 56 80 a8 bd
       0.008868494 -0.07762114 0.016241089 -0.08227603
000320 5d 48 e8 bd 39 0f 05 bd 48 d2 90 bd 4c 72 cf bd
       -0.11341927 -0.03248522 -0.07071358 -0.10129222
000330 39 98 14 bd 22 29 56 bd 98 52 32 3c 98 b9 01 3c
       -0.036277983 -0.05228532 0.01088395 0.007917784
000340 88 27 6b 3c cd ee d9 bd be a4 9c bd 6d 55 a1 bd
       0.014352687 -0.10641251 -0.076486096 -0.07877622
000350 2f 4b 9f 3d 64 c9 d7 bc 8a f0 2d 3d b0 4a 91 bb
       0.07778012 -0.026341148 0.042465724 -0.0044339523
000360 fa af 04 3d 38 6b db 3c b8 f6 d0 3c 4e d0 2b bd
       0.032394387 0.026784524 0.02550827 -0.0419467
000370 ef 21 ae bd 50 06 c4 bb da 8d bb bc 2f 34 6c bc
       -0.08502566 -0.005982198 -0.022894789 -0.014416738
000380 ff 99 39 bd 86 bd 6d 3d 9c 37 9f bd a3 1f ba bd
       -0.045312878 0.05804207 -0.077742785 -0.090880655
000390 c0 bd 45 3b 01 39 36 bd 71 7e 73 bd 95 08 33 bd
       0.0030172914 -0.044487957 -0.059446756 -0.043709356
0003a0 a2 e8 7e 3a 76 69 20 3d 88 d0 15 bd 31 aa 77 bd
       0.0009723996 0.039163075 -0.036575824 -0.06046504
0003b0 00 e6 30 b9 e0 2f 9b bd bd 01 6d bd d0 b6 78 bc
       -0.0001687035 -0.07577491 -0.057862986 -0.015180305
0003c0 60 5e 69 bc be e8 ae bd 66 68 83 bd 84 03 db bd
       -0.014243692 -0.08540486 -0.06416397 -0.1069403
0003d0 a0 16 eb bd d4 7f ce bc 25 85 e2 bd bc d3 4a bd
       -0.11478925 -0.025207438 -0.110605516 -0.049518332
0003e0 01 da 34 bd e3 be ce bd 69 5f 8a 3d e0 49 3f 3d
       -0.044153217 -0.100950025 0.06756479 0.046701312
0003f0 b5 6b e0 bc b5 49 50 bd a0 bb c2 3b 00 53 82 3c
       -0.027395109 -0.050851543 0.005942777 0.015908718

fc2.bias f4 [128]
000000 b9 97 cf bd 7f 7e d7 bd 15 e6 7f bd ad e4 71 3d
       -0.10136361 -0.10522174 -0.062475283 0.059055973
000010 48 92 5b 40 95 60 e2 bd db eb 3e bd de 6d db 3d
       3.4308033 -0.11053578 -0.046611648 0.10714315
000020 ee 6a 70 be b5 3f 20 bd a2 26 38 bc c1 91 41 3f
       -0.2347829 -0.039123256 -0.0112396795 0.7561303
000030 41 ac 1b bd aa 65 e1 bc d3 dc 38 3f e6 88 72 40
       -0.03800607 -0.027514298 0.7221195 3.7896056
000040 b9 17 c2 3f 59 8b 5d bc b9 ff a9 3c 4a 93 e5 3b
       1.516349 -0.013521993 0.02075182 0.0070060836
000050 16 f2 5a be 46 f2 98 bd e9 f1 01 bc db b4 53 3d
       -0.21381411 -0.07468085 -0.007931211 0.05168615
000060 8e e0 2d bc 56 8a 48 bd 8e 06 94 bd b0 1e dc bd
       -0.01061262 -0.048960052 -0.07227813 -0.10748041
000070 45 3d 7b be ad e0 17 bf cd fc 7b bf db ac ad bd
       -0.24535091 -0.59327203 -0.9843262 -0.08480235
000080 7e 85 41 bb 3e 98 0f bd 9f d8 56 be 4b 80 65 bd
       -0.002952903 -0.0350573 -0.20981072 -0.056030553
000090 8e 3a 78 bd b1 a1 1f 40 e9 80 dd be fd d5 2c c0
       -0.060602717 2.4942439 -0.43262413 -2.7005608
0000a0 6d 24 ab 3e e2 f4 08 bd 6a cc d8 bd 3a 56 d1 bc
       0.33426228 -0.033436663 -0.10585864 -0.025553811
0000b0 b3 f4 c3 3f 8c 45 af 3c 0e bd 3f bd 42 27 8b bc
       1.5309051 0.021395467 -0.046811156 -0.016986493
0000c0 d7 89 ae bd 97 63 2d be 7e 44 54 be ea 89 8f 3d
       -0.085223846 -0.16932522 -0.20729253 0.07008727
0000d0 ac 29 3f 40 94 a8 b0 bf 71 9b bd bd 0c bd aa 3e
       2.9869184 -1.3801446 -0.09258164 0.33347356
0000e0 d0 37 94 3b 84 31 02 be 4b 71 c2 bd fb 28 3a bf
       0.004523255 -0.12714201 -0.09494265 -0.7271878
0000f0 ed d6 03 bc 03 af 12 be 9b 0e 5e be 2a c7 3e bd
       -0.008046848 -0.14324574 -0.21685259 -0.046576656
000100 18 56 eb 3c 27 a7 9d 3c 8d 16 e0 bd 32 b0 45 3d
       0.028727576 0.019244744 -0.10941801 0.048263736
000110 5e 96 f4 bd e0 27 cc 3d 42 e2 68 bd 7f 17 d8 bc
       -0.11942743 0.09968543 -0.0568564 -0.026378391
000120 2b 48 90 be 6d 44 27 3f ce ef 8f bc c3 d0 48 39
       -0.2818006 0.65338784 -0.017570402 0.00019151256
000130 18 c4 e1 3e 62 d1 0b 3d cb 4b 48 3d 32 47 9f be
       0.4409492 0.03413523 0.048900407 -0.31109005
000140 f4 4d e3 3f 10 10 49 be 84 85 88 3c 8b a2 f5 3f
       1.7758164 -0.19635034 0.016665228 1.9190229
000150 3c 96 3c be 8f f0 d0 bd 8a f3 ab bd af 20 81 bd
       -0.18416685 -0.10202133 -0.08396061 -0.06305062
000160 72 96 bc bd de a3 2f be 99 79 c9 bd 0c 06 c6 bd
       -0.09208383 -0.17152354 -0.09837646 -0.09669122
000170 f3 ec 79 3e 9f ea 4c bd 02 a2 02 3c af fd 15 be
       0.24406795 -0.05002844 0.007973196 -0.14647554
000180 da 56 7f 3f a4 b6 e1 bd a6 cb e9 40 37 31 3a be
       0.997419 -0.11021164 7.3061094 -0.18182836
000190 9c 60 3e 3d 7a fb ac bd 05 c1 ea bd 7b ac 5e 3f
       0.046478853 -0.08446403 -0.11462597 0.86981934
0001a0 56 c6 15 3f 0a e3 7d 3d 92 2e 5d 3f c9 83 bf bd
       0.5850576 0.0619841 0.86399186 -0.09351308
0001b0 9b 03 72 bb 1c e5 5a 3e 5b 0b 96 be 77 8c 97 bc
       -0.0036928419 0.21376461 -0.2930554 -0.018499596
0001c0 f5 94 29 3f c5 be 05 3f 3e 33 7b bd 52 a3 bb bd
       0.66242915 0.52244216 -0.061328165 -0.0916201
0001d0 f9 32 db bb 37 9f ee 3e ed 05 ac 3f a0 63 e0 ba
       -0.006689426 0.46605846 1.3439308 -0.0017119534
0001e0 27 19 61 40 23 93 da bd ba d3 d4 bd 44 9f 0e be
       3.5171602 -0.10672595 -0.10391946 -0.13927943
0001f0 a8 a1 59 be b6 d2 14 bd d0 77 e8 bd ae 5a 5f bf
       -0.21253073 -0.036333762 -0.113509774 -0.8724774

fc3.weight f4 [2, 128]
000000 56 84 72 3d 64 cc c4 3a 28 18 1e 3a 6d 62 80 3c
       0.059208237 0.0015014526 0.0006030821 0.015671933
000010 51 13 e3 be d1 f4 6c 3c be 0f e6 3c 72 87 25 3d
       -0.44350675 0.014462666 0.028083678 0.040412374
000020 73 8d 29 bd d0 6d da 3b 8f 32 31 3c 06 0f b7 be
       -0.041394662 0.0066659227 0.010815277 -0.3575365
000030 94 f7 91 bd 03 5b 4f 3d 12 7d cd bc 4d cf 04 3e
       -0.071273 0.050623905 -0.025084052 0.12969704
000040 f0 d6 df 3c 05 de 11 3c 77 7d 14 bd 37 c8 e6 bc
       0.02732417 0.008903031 -0.036252465 -0.028171642
000050 a1 33 49 3c b6 44 65 3d 66 83 01 bc 35 84 45 b6
       0.012280376 0.05597373 -0.007904863 -2.9432242e-06
000060 4e 09 df 3c 08 26 82 3c 38 e5 5a 3b 8a 03 d0 3c
       0.027226117 0.015887275 0.0033400785 0.025392313
000070 6f 57 81 ba c2 a0 fc bb 93 a7 e0 bc 43 da a5 3d
       -0.0009867976 -0.0077095935 -0.027423656 0.08098271
000080 8a 36 af bb fd 24 aa 3c fb c3 4b bd 27 8d a3 3c
       -0.0053470777 0.02076959 -0.04974745 0.019964768
000090 4b 23 48 3c ce 2f 62 be 3c 8a ec 3c 47 dd c4 3d
       0.012215446 -0.22088549 0.028874509 0.09612518
0000a0 d7 63 6c be a8 41 04 bd 21 93 8a bc e5 df 7e 3c
       -0.23084961 -0.032289177 -0.01691586 0.01555631
0000b0 ce 4f 15 be 4c 57 90 bd ac 99 d3 b9 a4 02 ca bc
       -0.14581224 -0.070479006 -0.0004035955 -0.024659462
0000c0 fc 7a 92 bd 18 b7 be bc 7a 4a c1 bc df 61 d7 bc
       -0.07152364 -0.023280665 -0.023595084 -0.026291786
0000d0 51 77 ae bd 6a d5 30 be 53 aa 53 3d 8b a9 8a bd
       -0.085188515 -0.17268911 0.051676106 -0.06770619
0000e0 37 93 af 3d 43 57 1b bd 69 fb 88 3d 4e a0 e0 3c
       0.08573001 -0.037925016 0.06688578 0.02742019
0000f0 3a 3e b8 3c 69 98 81 3c 1e 58 98 bc 71 a8 65 bb
       0.02249061 0.015819745 -0.018596705 -0.0035043026
000100 2e 1c ea bd 88 c7 77 3d fb 30 04 3c 02 dd 67 3d
       -0.11431156 0.060493022 0.0080683185 0.056607254
000110 04 94 81 3d 65 81 91 ba 20 67 58 bb 19 00 7d bc
       0.0632706 -0.0011101185 -0.0033020452 -0.015441918
000120 92 1b e6 3c f2 bf 17 bf 12 6f 62 bc 58 3a cd bc
       0.028089318 -0.5927726 -0.013820427 -0.025052235
000130 7b b3 ad bc c9 3c 97 bd a2 ff ad bc 2a 5a 0c 3c
       -0.021203747 -0.07384641 -0.02124006 0.008566419
000140 fc f9 0a be 37 b2 a4 bb ea a3 97 3c b5 ac 02 bf
       -0.13571924 -0.0050261277 0.018510778 -0.5104478
000150 20 d2 22 bc a8 9b 38 3c 83 ef a5 bb 89 9a a4 bc
       -0.009937793 0.01126758 -0.0050639524 -0.02009322
000160 a1 6f a7 bd cb be ad 3c 80 62 e9 3c 83 3d 08 bd
       -0.081755884 0.021209141 0.028489351 -0.033261787
000170 a1 ff f4 bb 55 18 da 3c c4 15 4f 3d 75 ed a6 bc
       -0.0074767624 0.02662293 0.050557867 -0.0203769
000180 8f ce 83 bb 98 c9 e4 bc 95 08 2a 3e ef 08 83 bc
       -0.0040224264 -0.027928159 0.16604836 -0.01599547
000190 7f 01 d1 bb 77 90 12 bb 02 a8 6f bb ca 2b 81 3e
       -0.006378352 -0.002236394 -0.0036568646 0.2522872
0001a0 d7 aa 00 be d8 27 e7 bc 3f 2f 45 bc af 52 90 bd
       -0.1256517 -0.028217241 -0.01203519 -0.07047021
0001b0 1d 30 20 3c 42 fc d8 3b ed d7 ed bb f0 74 b6 3c
       0.009777096 0.0066218683 -0.0072584064 0.022272557
0001c0 1a 46 64 3c e0 1e 0f 3d 11 de f0 bc c4 2d 28 bd
       0.013932729 0.034941554 -0.029402765 -0.04105927
0001d0 61 29 2e 3d 98 e8 98 3c 72 05 9a bc ba 90 e8 bc
       0.04251993 0.018665597 -0.018801425 -0.028389324
0001e0 e8 52 82 3e 16 f6 82 bc 68 a5 35 3a a1 30 fb b8
       0.25453877 -0.015986484 0.00069292495 -0.000119776705
0001f0 19 46 b4 3c 77 a8 91 bd 4f 08 98 3c b6 33 19 be
       0.022006081 -0.0711221 0.01855865 -0.14961132
000200 c9 20 80 3c ef aa 1b 3d 60 ec 3d 3b 7f 03 96 bc
       0.015640633 0.03800481 0.0028980002 -0.018312214
000210 f3 26 8e be f8 b9 f8 3d 20 a5 83 3c 8d da 42 3c
       -0.2776409 0.12144846 0.016069949 0.011892927
000220 00 c4 09 bd 73 e5 8c bd 42 99 e6 ba a7 e1 c3 bd
       -0.033634186 -0.068797015 -0.0017593282 -0.09564524
000230 53 0f 05 bd ce 53 5c 3d 7f 2d 94 bc e4 99 3f bd
       -0.032485317 0.05379086 -0.0180881 -0.04677762
000240 1c 97 f7 be 70 b4 62 bc 9d 4b 7f bd e4 de 7b bc
       -0.48357475 -0.013836965 -0.06232797 -0.0153729655
000250 bc 53 21 3c a1 89 1e 3d c9 51 45 3d 1f 24 00 bc
       0.009846624 0.038705472 0.0481737 -0.007821112
000260 3c 1c 5c 3d ba ee eb bb 14 e5 07 3d fb 1c ad 3c
       0.053737864 -0.0072000893 0.03317745 0.021131983
000270 24 44 b5 3d f4 62 af 3d d9 6e 4b bc 91 40 8f 3b
       0.088508874 0.08563796 -0.012416565 0.0043717106
000280 70 a6 32 bd 68 a9 f2 3c 29 05 55 bd 92 ca 7e ba
       -0.04361576 0.029621795 -0.052006874 -0.00097195164
000290 69 9e 2e 3d 42 08 af be 35 ab 46 3d d4 99 df 3e
       0.04263154 -0.34185988 0.04850312 0.4367205
0002a0 c9 f8 3f be 10 21 58 bc 09 9e 9d bd 18 2c 35 3b
       -0.18747248 -0.013191476 -0.076961584 0.002764469
0002b0 40 9b 4f be 68 ee 43 bc 69 29 34 bc 2b ba fa 3b
       -0.20274067 -0.011958696 -0.010996201 0.0076515875
0002c0 45 dd 4b bb f1 2a dd bb 25 97 95 3b 96 a7 df bc
       -0.0031107229 -0.006749504 0.004565137 -0.02730159
0002d0 79 fa 2f be ba 7e 72 3d ba 60 10 3d 7c f2 c0 3d
       -0.17185391 0.059202887 0.035248496 0.0942125
0002e0 60 e5 c8 bb 61 60 4d 3d 90 0f 0b 3d 3e e3 bb 3c
       -0.0061308593 0.050140742 0.03395039 0.022935506
0002f0 97 d5 99 3d a9 72 6b 3c 8b 84 88 bd b7 7a 94 3d
       0.07511442 0.014370599 -0.066659056 0.072499685
000300 de e5 a6 bd b0 7d 2b bc ad 5f 5d bc ca 5b 87 3c
       -0.081493124 -0.010466978 -0.01351158 0.01652326
000310 38 ed e7 bc 13 de 95 3d 14 2b 63 3c 1e 18 17 bd
       -0.028311357 0.07317748 0.013865251 -0.036888234
000320 b6 f1 26 3c 20 d5 ad 3d b2 a1 ef 3c 24 b3 5f bd
       0.010189464 0.08487916 0.029251907 -0.0546142
000330 64 65 30 3c 10 18 13 3d ca f8 75 3d ee 37 14 3d
       0.010766361 0.03591162 0.060051717 0.03618615
000340 fd a8 2a be 3b a8 3e bb 05 27 63 bd 08 d6 33 bf
       -0.16666026 -0.0029091972 -0.055457134 -0.7024846
000350 35 65 42 3d 73 06 8f bc 06 83 46 3c 5d ed a0 3d
       0.0474598 -0.01745913 0.012116199 0.078577735
000360 36 18 a4 bc dd 3d ee bb d0 72 16 bd 71 65 65 3c
       -0.020031076 -0.0072705583 -0.036730587 0.014001236
000370 c7 8a 53 bd d0 65 92 3c bf d2 4b 3d 1c f7 17 3d
       -0.05164602 0.017870814 0.04976153 0.037100896
000380 78 ea 52 3c fc fd 74 3d a4 67 0a 3e 37 af 7d bc
       0.0128732845 0.05981253 0.13516098 -0.015483669
000390 50 9f 64 bc 67 e9 96 bd 3f 31 de bc 9d cf 73 be
       -0.013953999 -0.07368737 -0.027123092 -0.23809667
0003a0 a4 16 2d be 27 37 88 3c c9 a4 9f 3b 50 ee 46 3b
       -0.16903168 0.016627861 0.004871939 0.0030354448
0003b0 d4 8d db 3c c7 d9 c2 3c cb 81 51 3d f3 33 52 bc
       0.026801027 0.023785485 0.05114917 -0.0128297685
0003c0 68 61 57 3c 9f 9a 49 3c 73 7f 8d bc 46 34 ec bc
       0.013145782 0.012304931 -0.017272687 -0.02883352
0003d0 9c cc 47 3d ab e5 16 bd 05 6e 25 bd b2 d8 ca 3b
       0.048779115 -0.036840122 -0.040388126 0.006190383
0003e0 b9 f2 b7 3e f4 96 58 bd c8 e3 78 3d 23 81 f9 3c
       0.3592737 -0.052878335 0.060764104 0.030457085
0003f0 9d 79 e3 3c a9 56 e5 bb 6c 14 9d 3c ae d2 3f 3e
       0.02776795 -0.006998856 0.019174777 0.18732712

fc3.bias f4 [2]
000000 b8 47 80 40 87 a6 0d bf
       4.0087547 -0.55332226
